ai_final_Trained_win10_version/assist_data/Q_net2.pkl (torch, 294751 bytes, 6 tensors)

0.weight f4 [200, 256]
0	0x3bedd2e0	0.0072578043
1	0xbd40e498	-0.047093004
2	0xbd1267ac	-0.0357434
3	0xbd393900	-0.045220375
4	0x3c94ba28	0.018155172
5	0xbcc3797c	-0.02386164
6	0x3cc07e70	0.02349779
7	0x3d14f752	0.036368676
8	0xbcda4a82	-0.026646856
9	0x3d2c1e0c	0.042020842
10	0x3d4697d0	0.048484623
11	0x3d795525	0.060872216
12	0x3d34214c	0.043977067
13	0x3c862d44	0.016379006
14	0xbc1833a4	-0.009289656
15	0xbc042c88	-0.008067258
16	0xbce86636	-0.02836905
17	0xbd0f796e	-0.035027914
18	0x3c6d7ab7	0.0144945895
19	0xbd4eee5b	-0.050520282
20	0x3d4fb9f2	0.05071444
21	0xbcc86638	-0.024462804
22	0x3d354858	0.044258446
23	0xbd0d8154	-0.034547165
24	0x3c61b4e0	0.013776034
25	0x3d0c2530	0.034215152
26	0x3b74fb20	0.0037381127
27	0xbaf4c1c0	-0.0018673465
28	0x3cfb2dd8	0.030661508
29	0x3c793860	0.015211195
30	0x3c868909	0.016422765
31	0x3d65bd5e	0.056088798
32	0xbce2481a	-0.027622271
33	0xbbb3c270	-0.0054858252
34	0xbd45f638	-0.048330516
35	0xbcbb4aa0	-0.022862732
36	0x3d091f9c	0.03347741
37	0xbc823345	-0.015893588
38	0x3d0b3d60	0.03399408
39	0x3c55a218	0.013039134
40	0x3d038a9c	0.03211461
41	0x3cd72340	0.026261926
42	0x3ccca788	0.024982229
43	0x3bea26e1	0.007145748
44	0xbca8413c	-0.020538919
45	0x3cdfb4d8	0.027307913
46	0xbc04bc1b	-0.008101488
47	0x3d1d19b7	0.0383546
48	0xbc9bad35	-0.01900349
49	0xbbee340a	-0.007269387
50	0xbd27af8e	-0.040938906
51	0x397af1c7	0.00023931927
52	0x3d12f43f	0.035877462
53	0xbd42fc96	-0.047604166
54	0xbd7e58da	-0.062096454
55	0x3d34176e	0.043967657
56	0x3d3b1d00	0.045681953
57	0x3d5c79b9	0.05382702
58	0x3d570ce9	0.052502546
59	0x3d26e989	0.04075006
60	0x3d1dea7f	0.03855371
61	0x3c1f2af0	0.009714827
62	0xbd4fc930	-0.050728977
63	0xbd03c20c	-0.03216748
64	0xbc633b4a	-0.013869116
65	0x3d139636	0.036031924
66	0x3ba22a34	0.0049488787
67	0xbd0f100b	-0.03492741
68	0xbc30a95e	-0.010782568
69	0xbc78c518	-0.01518371
70	0x3bfa9750	0.0076474324
71	0x3bacbdb0	0.005271636
72	0xbc209990	-0.009802237
73	0xbcaa6d35	-0.020804027
74	0x3d2036c0	0.039114714
75	0xb9b77a8e	-0.0003499579
76	0x3d4fad94	0.050702646
77	0xbc7d2818	-0.015451454
78	0xbbbabb70	-0.005698614
79	0x3d36b61e	0.044607274
80	0x3d08d4f6	0.03340622
81	0xbd6476bb	-0.055777293
82	0xbcc291f6	-0.02375124
83	0x3d71bb8a	0.05901674
84	0xbd5e829a	-0.05432377
85	0xbca6d944	-0.020367272
86	0xbab4e7f2	-0.0013802035
87	0xbd544d9d	-0.05183183
88	0x3c0e73d4	0.008694608
89	0xbd3da31e	-0.04629814
90	0x3b9e3680	0.0048282743
91	0x3d588492	0.052860804
92	0xbd5942c0	-0.053042173
93	0x3d2e874e	0.042609505
94	0x3d3c22ef	0.045931753
95	0x3c73cf18	0.014880918
96	0xbca4710c	-0.020073436
97	0xbd739a72	-0.059473462
98	0x3b29ac83	0.0025890179
99	0xbd117634	-0.035513118
100	0xbd3ec64a	-0.046575822
101	0xbcd82f34	-0.026389696
102	0x3d087eeb	0.033324163
103	0x3bae9710	0.0053280666
104	0xbcee9fc8	-0.029128924
105	0x3d6ec61a	0.058294393
106	0xbd24b9e1	-0.04021633
107	0x3d07d4a6	0.03316178
108	0x3c1d0630	0.009583995
109	0xbcd33e40	-0.025786519
110	0xbc8abbf1	-0.01693532
111	0xbd3c7757	-0.04601225
112	0x3cc4fa1a	0.024045039
113	0x3d38c5fb	0.045110684
114	0xb9cc7a00	-0.0003900081
115	0xbd7261bf	-0.05917525
116	0xbc92fc2b	-0.017942509
117	0xbd797a9c	-0.060907945
118	0xbcc10c20	-0.023565352
119	0xbd6b1c84	-0.05740024
120	0x3d10f0a8	0.035385758
121	0x3c2574b0	0.010098621
122	0x3d3cbc32	0.046077915
123	0xbd6535d4	-0.055959538
124	0x3d41b3df	0.04729068
125	0xbccb5fb0	-0.0248259
126	0xbd705d5a	-0.058682777
127	0x3c214c1a	0.009844804
128	0xbd279d66	-0.04092159
129	0x3d0c48d8	0.034249157
130	0xbbcc793e	-0.006240039
131	0xbc7ca03c	-0.015419062
132	0xbc88ee61	-0.01671523
133	0x3abca04e	0.0014391036
134	0xbcfe5a24	-0.031048842
135	0x3d4e7572	0.050404973
136	0xbc775c16	-0.015097639
137	0x3cbf8b70	0.023381919
138	0x3d6174c4	0.055042997
139	0x3d75c43b	0.060001593
140	0xbc9aa3a0	-0.01887685
141	0xbd5dd12c	-0.05415456
142	0x3d66a234	0.056307033
143	0x3c9aef98	0.018913075
144	0xbc713278	-0.014721505
145	0xbd714052	-0.05889923
146	0x3ccfc90d	0.025364423
147	0x3d1fd47e	0.039021008
148	0x3d3d0422	0.04614652
149	0x3d797260	0.060900092
150	0x3be61240	0.0070212185
151	0xbd0d92bd	-0.03456377
152	0x3d2d9799	0.042380903
153	0xbc520e70	-0.012820825
154	0xbd72d340	-0.059283495
155	0x3d736b2a	0.05942837
156	0x3d411600	0.04714012
157	0x3bf985cd	0.0076148272
158	0xbd095bfb	-0.033534985
159	0xbd4890db	-0.04896627
160	0xbc444270	-0.011978731
161	0xbc95bdae	-0.018278923
162	0x3d541598	0.051778406
163	0x3d3d678b	0.046241324
164	0xbd713cd4	-0.0588959
165	0xbd3c6636	-0.045995913
166	0x3cc0e7e8	0.023548082
167	0xbc864ec5	-0.016394982
168	0xbd7ac6b2	-0.061224647
169	0xbd07f7f3	-0.033195447
170	0xbb35cee2	-0.002774172
171	0xbd61f36c	-0.055163786
172	0x3c212af0	0.009836897
173	0x3d7a8104	0.061158195
174	0xbcc04d47	-0.023474349
175	0xbd73a034	-0.059478953
176	0xbca70e88	-0.020392671
177	0xbbc252b0	-0.0059302673
178	0x3d6afb90	0.057368815
179	0xbd781626	-0.060567997
180	0x3bd4827a	0.0064852806
181	0x3c350966	0.011049604
182	0xbd61727f	-0.055040833
183	0x3c071b58	0.008246265
184	0xbd4c0835	-0.049812514
185	0xbcd9892e	-0.02655467
186	0xbbac587d	-0.005259572
187	0xbab778c0	-0.0013997778
188	0x3c96ddfc	0.018416397
189	0xbd142728	-0.036170155
190	0xbd1a133e	-0.037616007
191	0x3c800b90	0.015630513
192	0x3ce2a434	0.027666189
193	0x3c3031f0	0.0107540935
194	0x3b72771d	0.0036997267
195	0xbd2c6c83	-0.042095672
196	0x3c508525	0.012727057
197	0xbd4fa915	-0.05069836
198	0x3b4e274a	0.0031456524
199	0xbd760f57	-0.060073223
200	0xbcd4a408	-0.025957122
201	0x3d597157	0.053086605
202	0x3d7fdf90	0.062469065
203	0xbd45b8f2	-0.04827208
204	0x3d0c2752	0.034217186
205	0x3d680bf1	0.056652013
206	0xbd5804c0	-0.052738905
207	0xbc2a4782	-0.010393025
208	0x3d1613f2	0.036640115
209	0x3ccd6fc8	0.025077716
210	0xbd471bf2	-0.048610635
211	0x3d7d1f12	0.06179721
212	0x3cd5fbb0	0.02612099
213	0x3c086088	0.008323796
214	0x3cf886f1	0.030337783
215	0xbd6d6a75	-0.057962853
216	0x3d7689e1	0.060190085
217	0xbcbbbd20	-0.02291733
218	0xbd62585c	-0.055260047
219	0xbd41bf36	-0.047301494
220	0x3d557489	0.05211309
221	0xbb71767f	-0.003684431
222	0xbd3ca861	-0.046059016
223	0x3c9f65a4	0.019457646
224	0x3c7bcc18	0.015368484
225	0x3d5b8f42	0.05360342
226	0x3c657b88	0.014006503
227	0x3cf0ebb4	0.029409267
228	0xbb39ea33	-0.0028368353
229	0x3d6e4238	0.05816862
230	0xbd704b46	-0.058665536
231	0xbcc274cb	-0.023737332
232	0xbcdf9ead	-0.027297342
233	0xbc71cec0	-0.014758766
234	0xbcc50c6f	-0.02405378
235	0x3d0561d3	0.032563996
236	0x3d65c388	0.056094676
237	0xbd20c4eb	-0.039250296
238	0x3d1d57fc	0.038413987
239	0x3bae18ce	0.0053130155
240	0xbd5fd7b0	-0.054649055
241	0x3cec5a1c	0.028851561
242	0x3d666fe2	0.056259044
243	0x3c3caab0	0.011515304
244	0xbd184c6f	-0.037182268
245	0x3d745bdb	0.059657913
246	0x3d20e11c	0.03927718
247	0xbd357637	-0.04430219
248	0xbbe09530	-0.006853722
249	0xbc867a04	-0.016415603
250	0x3d1d2a08	0.038370162
251	0xbd6629aa	-0.056192078
252	0xbd7e9f76	-0.062163793
253	0x3d7b739f	0.06138956
254	0x3d49f4f2	0.049305864
255	0x3c9efd8c	0.01940801

0.bias f4 [200]
0	0x3bfcd4dd	0.007715805
1	0x3d6efbbc	0.05834554
2	0x3d529a1e	0.05141651
3	0x3da525c6	0.08063845
4	0xbc1dd1e8	-0.009632565
5	0x3d112268	0.035433203
6	0x3d03bbb2	0.032161422
7	0x3db323d3	0.08747067
8	0xbd1ba7e6	-0.038001917
9	0x3dad8494	0.08472553
10	0x3c547afb	0.012968774
11	0x3d94c476	0.072640345
12	0xbb11fee0	-0.0022277161
13	0xbd3f4f1c	-0.046706304
14	0x3d408baf	0.047008213
15	0x3d5a8e8f	0.05335861
16	0x3d5f6475	0.054539163
17	0x3c705c98	0.014670514
18	0xbbd46c4f	-0.006482638
19	0xbcab4a78	-0.020909533
20	0xbc9de634	-0.019274808
21	0x3cd1a2d0	0.02559033
22	0x3d0bbf08	0.03411773
23	0x3dc56da2	0.096400514
24	0x3d4f64a3	0.050633084
25	0xbd3598b2	-0.044335075
26	0xbc5d3c41	-0.013503135
27	0xbc886efc	-0.016654484
28	0xbc0bf246	-0.008541649
29	0xbc431f15	-0.011909266
30	0xbb804aa0	-0.003915146
31	0xbd6c0a2c	-0.05762689
32	0xbc63e1e0	-0.013908833
33	0x3d6e88d6	0.058235966
34	0x3d91388d	0.07090864
35	0x3d66e10a	0.056366958
36	0xbc0a25f0	-0.008431897
37	0xbcf58488	-0.029970422
38	0x3d6f8e3e	0.058485262
39	0x3d08d453	0.033405613
40	0xbd653732	-0.05596084
41	0xbd68b178	-0.056809872
42	0xbc951290	-0.018197328
43	0xbcdd0e88	-0.026984468
44	0xbcf3b570	-0.029749602
45	0x3c7e026c	0.015503507
46	0xbc4632d8	-0.012097083
47	0xbd5b405e	-0.053528182
48	0xbd49813e	-0.04919552
49	0x3c030aaa	0.007998148
50	0xbcf34ad4	-0.029698767
51	0x3d760d3e	0.060071222
52	0xbca24858	-0.019809887
53	0xbc6ec318	-0.014572881
54	0x3d0e6e16	0.034772955
55	0x3d578485	0.052616615
56	0xbcdd12a4	-0.026986428
57	0x3d711b3b	0.05886386
58	0x3dcdf589	0.10056598
59	0x3d6fbb71	0.058528367
60	0x3cd635e4	0.026148744
61	0x3cfef803	0.03112412
62	0xbd470b34	-0.04859467
63	0x3dddb30e	0.108251676
64	0x3d277725	0.04088511
65	0xbcdd3b80	-0.02700591
66	0xb9d68eae	-0.00040923565
67	0xba9eeaea	-0.0012124453
68	0x3bc4d6dc	0.0060070585
69	0xbce33d68	-0.027739242
70	0x3d94c9f6	0.072650835
71	0x3da6bbc6	0.08141284
72	0x3dae60f5	0.08514587
73	0xbd1a65dc	-0.037694797
74	0x3d3bacc5	0.045819063
75	0x3d3d9b87	0.0462909
76	0xbd12d6bc	-0.035849318
77	0xbba042b0	-0.0048907623
78	0x3d168e79	0.036756966
79	0xbd2dc09e	-0.042420022
80	0xbd11d1f4	-0.035600618
81	0x3dd9aafc	0.10628316
82	0xbd1441b0	-0.036195457
83	0x3c7c63cf	0.015404656
84	0xbca985bc	-0.020693652
85	0x3c82aa63	0.015950387
86	0x3db7a18d	0.0896636
87	0x3de79b13	0.11308875
88	0xbc836e34	-0.01604376
89	0x3d7dcbb8	0.06196186
90	0x3890fc1e	6.9134156e-05
91	0x3c626fc0	0.013820589
92	0x3d8b2998	0.06795043
93	0x3d5a50e3	0.053299796
94	0xbbf70ef0	-0.0075396225
95	0x3a129760	0.00055920146
96	0x3d4505f8	0.048101395
97	0x3d274db7	0.0408456
98	0x3cfbb0b7	0.030723913
99	0xbd364d74	-0.04450746
100	0xbd79db4a	-0.061000146
101	0xbd6e392e	-0.05816
102	0xbc8191e4	-0.015816636
103	0xbcc1bb18	-0.023648784
104	0xba7dec00	-0.0009686351
105	0x3daebdbb	0.08532282
106	0x3d9e4b15	0.077291645
107	0x3c0c3758	0.008558117
108	0x3d822aab	0.063557945
109	0xbd6b3bda	-0.057430126
110	0xbd6826b0	-0.05667752
111	0x3cf1cfd9	0.029518055
112	0x3c990667	0.01867981
113	0x3d6ef122	0.05833543
114	0xbcac4ff4	-0.021034218
115	0x3c206494	0.009789605
116	0xbd27c76c	-0.040961668
117	0x3c8b3405	0.016992578
118	0xbd734b44	-0.05939795
119	0xbbc01280	-0.0058615804
120	0xbd0518d0	-0.032494366
121	0xbc1742e8	-0.00923226
122	0xbd61f712	-0.055167265
123	0x3d193a84	0.03740932
124	0xbd357646	-0.044302247
125	0xbd091444	-0.033466592
126	0x3d0d1c81	0.03445101
127	0xbc5660e8	-0.013084628
128	0x3b4787b8	0.0030445885
129	0xbd0e8a02	-0.034799583
130	0x3d9aba21	0.075550325
131	0x3d5b3aae	0.05352276
132	0xbc99c828	-0.0187722
133	0xbcac0ec8	-0.021003142
134	0x3d58cdf7	0.0529308
135	0xbd397a7c	-0.045282826
136	0x3d29dbf9	0.041469548
137	0xbcc1c710	-0.02365449
138	0xbd5d928a	-0.05409483
139	0xbd777bcc	-0.060420796
140	0x3d4ccbc6	0.04999902
141	0xbbf8d011	-0.007593163
142	0xbd048a94	-0.03235872
143	0xbca496ac	-0.020091377
144	0x3d19a7bf	0.03751349
145	0x3bf619b2	0.0075103873
146	0x3cec5889	0.02885081
147	0xbcacf68c	-0.021113656
148	0x3d92ec49	0.07173974
149	0xbb6bcca0	-0.003598012
150	0xbc917698	-0.017756745
151	0xbd507092	-0.050888605
152	0x3ba0cec9	0.004907463
153	0x3d98d361	0.07462192
154	0x3d83ad54	0.06429544
155	0xbc242658	-0.0100189075
156	0xbd06ff38	-0.03295824
157	0x3dad65b3	0.08466663
158	0x3b6a0623	0.0035709224
159	0xbcd791b4	-0.026314594
160	0xbd7842c8	-0.060610563
161	0x3d80fe89	0.06298549
162	0x3d423aaf	0.047419246
163	0x3dd2bf02	0.10290338
164	0x3e1bbc5e	0.15208575
165	0xbcb8ddb4	-0.022566654
166	0x3bc74e5a	0.0060823383
167	0x3dc457ea	0.09587081
168	0x3b5f9873	0.0034117966
169	0x3cd90ae1	0.026494445
170	0xbc8d0b0c	-0.017217182
171	0x3cd2d8a2	0.025738064
172	0x3ba8b448	0.0051484443
173	0x3d01d8fe	0.03170108
174	0xbb45dd04	-0.003019155
175	0xbd01b258	-0.031664222
176	0xbc274250	-0.010208681
177	0x3d123def	0.035703596
178	0x3b442a81	0.002993256
179	0xbd53d9d6	-0.051721416
180	0xbd498ddc	-0.049207553
181	0xbd2a331a	-0.04155264
182	0x3da69382	0.08133604
183	0xbd037d06	-0.032101654
184	0x3dfc172f	0.123091094
185	0xbc2e4630	-0.010636851
186	0xbca39914	-0.019970454
187	0xbc6ba690	-0.014382973
188	0xbc82e6d0	-0.0159792
189	0xbbd9f730	-0.0066517815
190	0xbb8711b0	-0.0041219816
191	0xbd679354	-0.056536987
192	0x3d35bec3	0.044371378
193	0x3c9b8cd4	0.01898805
194	0xbd10a8f4	-0.035317376
195	0x3dada3ec	0.08478531
196	0x3dadc417	0.08484667
197	0x3da99c8b	0.08281811
198	0xbcc91c28	-0.024549559
199	0xbcd7b334	-0.026330568

2.weight f4 [100, 200]
0	0x3c084a03	0.008318427
1	0xbc98007b	-0.018554917
2	0x3d2c2b97	0.042033758
3	0x3d81b21d	0.063328005
4	0x3cff8e5c	0.031195812
5	0x3d51c6c6	0.051214956
6	0xbce1d5ea	-0.027567822
7	0x3d812542	0.063059345
8	0x3b98b1e0	0.004659876
9	0xbd1f26f8	-0.038855523
10	0x3d5fcf26	0.05464091
11	0x3d4cff6d	0.05004828
12	0xbd222230	-0.039583385
13	0x3d79e80a	0.061012305
14	0xbd3ad172	-0.0456099
15	0x3bf276b2	0.0073994035
16	0x3d1cbd93	0.03826673
17	0x3d19a9ca	0.03751544
18	0x3d8625cc	0.06550178
19	0xbd542367	-0.051791575
20	0x3d54e4bc	0.05197595
21	0xbd8115dd	-0.06302998
22	0xbc31a86f	-0.01084338
23	0x3b5e2542	0.003389672
24	0x3cfe20a6	0.031021427
25	0xbd2d062c	-0.042242214
26	0xbba48cee	-0.005021683
27	0xbd2298aa	-0.039696373
28	0xbd12e395	-0.03586157
29	0xbacf40bf	-0.0015812143
30	0xbc92541e	-0.017862376
31	0x3c0372d0	0.008022979
32	0xbd7be40a	-0.061496772
33	0xbccba7cb	-0.024860283
34	0x3d4cca7a	0.049997784
35	0x3d26c67b	0.04071663
36	0x3c12f1b8	0.008968763
37	0x3d8b2649	0.06794412
38	0x3bd46af7	0.0064824778
39	0xbd3d33a9	-0.046191845
40	0x3d070a5e	0.03296887
41	0xbd217d73	-0.03942628
42	0xbd15d8db	-0.036583763
43	0xbcfbdb10	-0.030744106
44	0x3d688236	0.056764804
45	0x3d63e6a8	0.055639893
46	0xbd8d8f3f	-0.06912088
47	0x3d50c57e	0.050969593
48	0xbd7c2822	-0.06156171
49	0x3d26493b	0.04059718
50	0x3d2825fe	0.041051857
51	0xbd7bddc6	-0.061490797
52	0x3c67f410	0.01415731
53	0xbcb5be80	-0.022185564
54	0x3d374f14	0.04475315
55	0xbd864990	-0.06557
56	0xbc83be1e	-0.016081866
57	0xbcdeb8a0	-0.027187645
58	0xbca61622	-0.020274226
59	0xbc81a43e	-0.015825387
60	0x3d3a9db8	0.04556057
61	0x3d0aac9a	0.033856012
62	0xbb4aba20	-0.0030933693
63	0x3d901028	0.070343316
64	0x3d586bdb	0.052837234
65	0x3d3eabf8	0.04655072
66	0xbd14fe9d	-0.03637563
67	0xbc9ab526	-0.018885206
68	0xbd70b925	-0.058770318
69	0xbd751a78	-0.059839696
70	0x3c41b19d	0.011822131
71	0xbd8abfab	-0.06774839
72	0x3cc5a0ca	0.024124522
73	0x3cad5604	0.02115918
74	0x3d051f71	0.032500688
75	0xbd7216e2	-0.059103854
76	0x3d8f9185	0.070101775
77	0x3c9a3abc	0.018826835
78	0xbd18a6ff	-0.037268635
79	0xbd1446d6	-0.036200367
80	0x3d57f402	0.05272294
81	0xbbda454b	-0.0066610924
82	0xbc58b048	-0.0132256225
83	0x3d6b2593	0.05740888
84	0xbd8875e1	-0.066631086
85	0x3d85a9a1	0.06526495
86	0xbb6aab21	-0.0035807567
87	0x3cd775ac	0.026301228
88	0xbd807330	-0.0627197
89	0x3d4ca01d	0.049957383
90	0xbd713fec	-0.05889885
91	0xbd190bc3	-0.037364732
92	0x3ba6d89a	0.005091739
93	0x3c9ebfc3	0.019378548
94	0x3d435b76	0.047694646
95	0x3ce3e360	0.027818382
96	0xbd3156b6	-0.043295585
97	0xbd8a0355	-0.06738917
98	0xbd2fcf8f	-0.042922553
99	0x3ca36fcc	0.01995077
100	0x3d049986	0.032372974
101	0xbcd29a7a	-0.025708426
102	0xbb5a6660	-0.003332518
103	0x3d707246	0.05870273
104	0x3d1c6690	0.03818375
105	0xbd2d0148	-0.04223755
106	0x3d8a04cf	0.067391984
107	0x3b516b38	0.0031954776
108	0xba2b6654	-0.00065383804
109	0x3d5811c2	0.05275131
110	0x3d3c8a1c	0.04603015
111	0x3c9337c9	0.017970936
112	0xbc744d0e	-0.014910949
113	0x3d8f865a	0.070080474
114	0x3ca6b150	0.020348221
115	0x3d0cd1cf	0.034379777
116	0x3d71ed56	0.05906423
117	0x3b9101c4	0.0044252593
118	0x3c9d8714	0.01922945
119	0xbd750d11	-0.059826914
120	0x39f5ad00	0.00046858937
121	0x3d8061a7	0.06268626
122	0xbc61df44	-0.013786141
123	0xbd616241	-0.055025343
124	0xbcacb9d0	-0.021084696
125	0xbd02af4d	-0.03190546
126	0x3d21a9f8	0.039468735
127	0x3d691af1	0.05691046
128	0xbc8166e8	-0.01579614
129	0x3ab9e580	0.0014182776
130	0x3d356bb1	0.044292156
131	0x3a46ada3	0.00075789745
132	0x3bbaed00	0.005704522
133	0x3d8e025f	0.06934046
134	0x3d867c5a	0.06566687
135	0xbcd642fc	-0.026154988
136	0x3d339a8e	0.043848567
137	0xbd90786a	-0.07054217
138	0x3d711df6	0.058866464
139	0xba502f80	-0.00079416484
140	0x3d8e9502	0.06962015
141	0xbd82af9e	-0.063811526
142	0xbc082b58	-0.008311115
143	0xbc29beb8	-0.010360412
144	0x3d35c3c0	0.044376135
145	0x3d53af1e	0.051680677
146	0x3d3f1436	0.046650134
147	0xbc4d4684	-0.012529019
148	0x3d8e1b1c	0.069387645
149	0x3d8b992f	0.06816327
150	0x3d895d45	0.06707243
151	0xbd818585	-0.06324295
152	0x3cf32e37	0.029685123
153	0xbcd27e6e	-0.025695052
154	0xbd6dafe6	-0.058029078
155	0xbd3149ab	-0.043283146
156	0xbc5723e8	-0.013131119
157	0x3d95b036	0.07309
158	0x3cf12f4c	0.029441498
159	0xbd5f5ee6	-0.05453386
160	0xbc3378e8	-0.010954119
161	0x3d1559c6	0.036462568
162	0x3ceeb37d	0.029138321
163	0x3c98ace6	0.018637132
164	0x3d7b205b	0.061310153
165	0xbd47fec9	-0.048826966
166	0x3d8fdbb3	0.07024326
167	0xbc0042b0	-0.0078284
168	0xbd23863e	-0.039922945
169	0xbcac16f2	-0.021007035
170	0xbd29cae6	-0.041453265
171	0x3d27f9af	0.0410096
172	0x3c971ef4	0.018447377
173	0x3c969a9c	0.01838427
174	0xbd616ec7	-0.055037286
175	0xbd5cb9b1	-0.053888027
176	0xbd56859c	-0.052373514
177	0x3cbb6f2c	0.02288016
178	0x3d8b13cb	0.067908846
179	0xbcecdc28	-0.028913572
180	0x3d0d4aba	0.034495093
181	0x3d619e8a	0.055082835
182	0x3d0d5101	0.03450108
183	0x3c8062f8	0.015672192
184	0xbd6a8e91	-0.05726487
185	0x3d6427de	0.055702083
186	0xbd26bd7a	-0.040708043
187	0x3d3a99c6	0.045556806
188	0x3d237d1a	0.039914228
189	0xbd3457d8	-0.044029087
190	0x3c787610	0.015164867
191	0xbd3d4270	-0.046205938
192	0xbc152ed9	-0.009105408
193	0xbd635ea4	-0.05551018
194	0xbc302504	-0.010751013
195	0x3d15dcf9	0.03658769
196	0xbcb037e1	-0.02151102
197	0x3cbc930c	0.023019336
198	0xbced0cbc	-0.028936736
199	0x3d8044bb	0.06263109
200	0x3c9a8f24	0.018867083
201	0x3cbc7884	0.023006685
202	0x3c484f20	0.012225896
203	0x3d66689e	0.056252114
204	0x3d055b10	0.032557547
205	0xbd1190f0	-0.035538614
206	0xbd8c428b	-0.068486296
207	0x3b9dd1c0	0.004816264
208	0x3c80eb84	0.015737303
209	0x3c27f530	0.010251328
210	0xbd7b13d8	-0.06129822
211	0x3d5bb5a6	0.05364003
212	0x3cab41d8	0.02090542
213	0xbbec8270	-0.007217698
214	0xbd8776c6	-0.06614451
215	0x3b47dcc0	0.0030496567
216	0x3d3ecede	0.046584003
217	0xbc005038	-0.007831626
218	0x3ca80b50	0.020513207
219	0xbc67da18	-0.014151119
220	0x3d824e21	0.06362558
221	0x3cd2d784	0.025737531
222	0x3d19cf38	0.037551135
223	0x3c385800	0.01125145
224	0x3d5c87e4	0.053840533
225	0xbd8ce336	-0.068792745
226	0x3c0f10f0	0.008732066
227	0x3d041410	0.032245696
228	0x3d878e03	0.066188835
229	0xbd70fe20	-0.058836102
230	0xbd242a8e	-0.040079646
231	0x3d8e13df	0.06937384
232	0x3d1057e8	0.035240084
233	0x3d793a02	0.060846336
234	0xbd64fa80	-0.055902958
235	0x3c40ba08	0.011763103
236	0x3d5edc02	0.054409035
237	0xbd6b4055	-0.0574344
238	0x3c9eaa90	0.01936844
239	0x3be3eca0	0.006955698
240	0x3c0aafb8	0.008464746
241	0xbcb2157e	-0.021738764
242	0xbc99f92c	-0.018795572
243	0xbc6ab0f4	-0.0143244155
244	0xbc2ad988	-0.01042784
245	0x3ccc70b4	0.024956085
246	0xbc41288c	-0.011789452
247	0x3d0fbe9c	0.03509389
248	0xbd2d5f32	-0.042327113
249	0x3d814121	0.063112505
250	0x3cb662f4	0.022263981
251	0xbd342564	-0.04398097
252	0x3aa72f40	0.001275517
253	0xbd6f44a6	-0.058415078
254	0x3cfa3ca0	0.030546486
255	0xbc232b08	-0.00995899

2.bias f4 [100]
0	0xbb97a8ce	-0.0046282774
1	0x3badc9a0	0.0053035766
2	0x3e48d646	0.19612989
3	0x3e1ec8a6	0.15506229
4	0xbcdbb808	-0.026821151
5	0xbd743173	-0.05961747
6	0x3dcc3251	0.099705346
7	0xbd53b8fa	-0.05169008
8	0x3ceced29	0.02892168
9	0xbd8d4224	-0.06897381
10	0xbd898c84	-0.06716254
11	0x3d78b114	0.06071575
12	0xbbb2fcb0	-0.0054622516
13	0x3db5bd37	0.088739805
14	0xbd051fdf	-0.032501098
15	0xbd0d3b56	-0.034480415
16	0x3e21a9e2	0.15787461
17	0xbcef25ee	-0.029192891
18	0x3e05316a	0.13007131
19	0xbd89b2ae	-0.067235336
20	0x3da9b74a	0.08286913
21	0x3c654c38	0.013995223
22	0x3db78f41	0.089628704
23	0x3bebfec2	0.0072020004
24	0x3b8eae00	0.0043542385
25	0x3cb34c5a	0.021886993
26	0xbcad142e	-0.021127786
27	0x3ba25730	0.004954241
28	0xbd479042	-0.04872156
29	0xbd90c3c9	-0.07068593
30	0xbd4b11c2	-0.049577482
31	0x3c7e5360	0.015522808
32	0x3e8e7549	0.27823856
33	0x3b013527	0.001971552
34	0xbd6fc568	-0.05853787
35	0xbc63ecb8	-0.013911419
36	0xbcdc9a20	-0.026928961
37	0xbd781530	-0.06056708
38	0xbc9515f8	-0.018198952
39	0x3d4eea86	0.050516628
40	0xbc834b82	-0.016027216
41	0xbc184038	-0.009292655
42	0x3e30907c	0.17242616
43	0xbd3a2d94	-0.045453623
44	0xbd1b47f9	-0.037910435
45	0xbd83e21a	-0.0643961
46	0xbca5ab58	-0.020223305
47	0xbc67c8c1	-0.014146985
48	0x3d603855	0.054741222
49	0xb9922400	-0.00027874112
50	0x3b883238	0.004156377
51	0xbc89f618	-0.01684098
52	0x3df1d876	0.11808865
53	0x3df36c8d	0.11885939
54	0xbd843e95	-0.06457249
55	0xbd1ca7d4	-0.03824599
56	0xbc12c03c	-0.008956965
57	0x3cf4f1d3	0.029900467
58	0x3b487750	0.0030588694
59	0x3ea06637	0.31327984
60	0x3e3e57fe	0.18588254
61	0x3d073739	0.03301165
62	0x3e8528ee	0.2600779
63	0xbd0c7d48	-0.034299165
64	0xbd675430	-0.05647677
65	0xbccb440c	-0.02481272
66	0xbd6f7170	-0.05845779
67	0xbb6ffbfe	-0.0036618705
68	0x3d37754e	0.044789605
69	0x3dc6732e	0.096899375
70	0x3cd6d876	0.026226263
71	0x3e05441a	0.1301426
72	0xbd6e3998	-0.058160394
73	0xbd86b07c	-0.065766305
74	0xbd7ef546	-0.06224563
75	0xbb1f1b40	-0.0024277717
76	0xbd4c4d2e	-0.04987829
77	0x3d123f5d	0.03570496
78	0xbd0beb97	-0.034160223
79	0x3bd2647b	0.0064206696
80	0xbd2cb84f	-0.042167958
81	0x3b694e4c	0.0035599647
82	0xbd0fe0bf	-0.035126444
83	0x3de29008	0.11062628
84	0xbc4c4aec	-0.012469035
85	0x3e6bac22	0.23014882
86	0x3c0ca8c6	0.008585161
87	0xbd4fec9b	-0.050762754
88	0xbd8d8865	-0.06910781
89	0xbd1c101c	-0.0381013
90	0xbcfcf846	-0.030880105
91	0xbc59723c	-0.0132718645
92	0x3cb0238e	0.021501329
93	0xbc55e734	-0.013055611
94	0x3ca07150	0.019585282
95	0xbcefe9de	-0.029286321
96	0x3d3d83e4	0.04626836
97	0xbd1191cd	-0.035539437
98	0x3d02054c	0.031743333
99	0x3e2c1f40	0.16808796

4.weight f4 [16, 100]
0	0x3c2bfc65	0.010497187
1	0x3d8207f9	0.06349177
2	0xbc04d1f8	-0.008106701
3	0xbd98469e	-0.07435344
4	0xbc87fa80	-0.01659894
5	0x3dacc5ff	0.08436202
6	0x3d814962	0.06312825
7	0xbd7f3d5d	-0.06231438
8	0x3db78cd5	0.089624085
9	0xbdab5cfb	-0.08367344
10	0xbd2e6c33	-0.042583656
11	0x3da6b85a	0.08140631
12	0xbd8b9d54	-0.06817117
13	0x3d8f380a	0.069931105
14	0x3d83a11b	0.06427213
15	0xbdba0d6b	-0.090845905
16	0x3d9f7b76	0.0778722
17	0x3cd76274	0.026292063
18	0xbd948fee	-0.07254015
19	0xbd561467	-0.05226555
20	0xbd1f2e1d	-0.038862336
21	0xbd5daa70	-0.05411762
22	0x3d95ae8e	0.07308684
23	0xbcf82415	-0.030290643
24	0xbcc4cec6	-0.024024379
25	0x3cf02297	0.029313369
26	0xbdbd1c6a	-0.09233935
27	0xbd88fef5	-0.06689254
28	0x3d4111a2	0.047135957
29	0xbdc98fc3	-0.098418735
30	0x3db3c463	0.08777692
31	0xbca356d8	-0.019938871
32	0x3dd97617	0.10618227
33	0x3d35abf4	0.04435344
34	0x3c98724c	0.018609188
35	0x3d9b2be7	0.07576733
36	0xbd0b48ea	-0.034005083
37	0x3d0d079e	0.034431092
38	0x3daaa7db	0.08332797
39	0x3b8848d0	0.0041590706
40	0xbd1d52a0	-0.038408875
41	0x3d589dc6	0.05288484
42	0x3dd2b62c	0.10288653
43	0x3cba6394	0.02275256
44	0x3c331180	0.010929465
45	0x3dad0271	0.08447731
46	0x3d82b1c7	0.063815646
47	0xbdbcd078	-0.0921945
48	0x3dc3e6f2	0.09565534
49	0x3c337f58	0.010955654
50	0xbd352b06	-0.044230483
51	0x3ce25b44	0.02763141
52	0x3d743732	0.05962295
53	0x3c4430e8	0.011974551
54	0xbd843db6	-0.06457083
55	0x3d405b5e	0.046962135
56	0xbd9e6683	-0.07734396
57	0x3d682a18	0.05668077
58	0x3c912bfc	0.017721169
59	0x3cf010a1	0.029304804
60	0xbb0ca9ca	-0.0021463507
61	0x3d39e3cc	0.04538326
62	0x3d92d2ff	0.071691506
63	0xbd714b13	-0.058909487
64	0x3ce7ec44	0.028310902
65	0xbdc4e28f	-0.09613525
66	0xbbee17e0	-0.0072660297
67	0x3d861131	0.06546248
68	0x3da9b26e	0.08285986
69	0x3b9cb4f1	0.004782312
70	0x3c87be4c	0.016570233
71	0x3dddfe71	0.108395465
72	0x3d4a3622	0.04936803
73	0xbdbfec55	-0.09371249
74	0xbc0afa90	-0.00848259
75	0x3db6ae0b	0.08919915
76	0x3daad4fb	0.08341404
77	0x3d3c0066	0.045898817
78	0x3cbf53b8	0.02335535
79	0xbd99b9e6	-0.075061604
80	0x3db4e219	0.08832187
81	0xbd39034a	-0.045169152
82	0x3dc8c054	0.09802309
83	0xbcb8be1c	-0.022551589
84	0xbdc4fbc3	-0.09618332
85	0x3db5cfbc	0.08877513
86	0xbd0024cf	-0.031285103
87	0xbdb4c272	-0.0882615
88	0x3d2db512	0.04240901
89	0x3dbfbd0f	0.09362232
90	0xbcdc8000	-0.026916504
91	0xbd767ffa	-0.06018064
92	0xbd8ba97c	-0.06819436
93	0x3d2eab1e	0.04264366
94	0xbba50de3	-0.005037056
95	0xbda9c062	-0.08288647
96	0x3dc42abe	0.09578465
97	0x3be2c6b0	0.006920658
98	0x3c3732c2	0.011181535
99	0xbd5f903f	-0.054580923
100	0xbdafe6dc	-0.08588955
101	0x3d2c6e46	0.042097352
102	0xbcc139f7	-0.02358721
103	0x3d6f5d4a	0.058438577
104	0xbd2b206d	-0.04177897
105	0x3cb5db4c	0.022199295
106	0x3d6a4795	0.057197172
107	0xbc8bc948	-0.017063752
108	0x3c8ef2d4	0.017449774
109	0xbc2a4fd0	-0.010395005
110	0x3c6ec528	0.014573373
111	0x3dae1af6	0.08501236
112	0x3d86f51b	0.06589719
113	0xbd245c07	-0.040126827
114	0xbd6b6db7	-0.05747768
115	0xbd303cb0	-0.043026626
116	0x3e0230df	0.12713955
117	0x3d7c526a	0.061602034
118	0xbcaecfeb	-0.021339377
119	0x3d8f5c21	0.06999994
120	0x3d07a577	0.033116784
121	0xbd176683	-0.036962997
122	0x3d621efa	0.055205323
123	0xbbcfc783	-0.0063409223
124	0x3d6914ce	0.056904607
125	0xbd7b6d3f	-0.061383482
126	0xbd8f659e	-0.07001804
127	0x3d85ad37	0.06527179
128	0x3d82391b	0.06358548
129	0x3d23d60e	0.03999906
130	0xbdb31250	-0.08743727
131	0xbc8acf40	-0.016944528
132	0x3b663413	0.0035126253
133	0x3d109955	0.03530248
134	0x3d971117	0.073763065
135	0xbda08e73	-0.0783967
136	0x3d45e772	0.048316427
137	0x3dad5391	0.08463205
138	0xbdb759d2	-0.08952679
139	0x3cf30007	0.029663099
140	0xbd02e086	-0.031952403
141	0xbdacd0fa	-0.084382966
142	0x3e04e066	0.12976226
143	0x3d052f42	0.03251577
144	0x3d889b7f	0.066702835
145	0x3d45cb82	0.048289783
146	0x3d4e1f82	0.050323017
147	0x3cb60136	0.022217374
148	0x3dd79841	0.10527087
149	0xbda4dcb6	-0.0804991
150	0xbd291893	-0.0412832
151	0x3d0d8a12	0.034555502
152	0x3d81b9b3	0.063342474
153	0xbd2daad0	-0.042399228
154	0xbdbfa748	-0.09358078
155	0xbd6ac560	-0.057317138
156	0xbc2d53a8	-0.010579027
157	0x3c9374f2	0.0180001
158	0xbdad0f76	-0.084502146
159	0x3e1db5cd	0.15401383
160	0x3d80e9a3	0.06294563
161	0x3d69ae4c	0.057050988
162	0xbcb14fc0	-0.021644473
163	0x3cc56d14	0.024099864
164	0xbdbbcc6a	-0.09169848
165	0x3ceaf044	0.02867902
166	0x3d85cf0d	0.065336324
167	0xbd373407	-0.04472735
168	0xbd564aac	-0.052317306
169	0x3de4d121	0.11172701
170	0xbcb067be	-0.021533843
171	0xbca87c70	-0.020567149
172	0xbd978980	-0.07399273
173	0x3d8f091f	0.069841616
174	0x3d86ec1d	0.06588004
175	0xbc97c668	-0.018527225
176	0x3da22f81	0.07919217
177	0x3d025b0e	0.031825118
178	0x3da15f2b	0.0787948
179	0x3cabc388	0.02096726
180	0xbcc56fe0	-0.024101198
181	0x3d88a912	0.066728726
182	0x3da5a737	0.08088534
183	0xbd54fa17	-0.051996317
184	0x3dc37701	0.095441826
185	0x3e0b3c9d	0.13597341
186	0x3ccaa5a2	0.024737183
187	0xbdc991ad	-0.098422386
188	0x3d6f7706	0.05846312
189	0x3b555500	0.0032551885
190	0x3d88d5fd	0.0668144
191	0x3cb4508c	0.022011064
192	0x3dc28392	0.09497751
193	0xbd064a8a	-0.03278593
194	0xbcf7ffc9	-0.030273335
195	0xbd8a2e7c	-0.067471474
196	0x3dd2fcc8	0.103021204
197	0xbd8e0538	-0.06934589
198	0x3c428467	0.0118723875
199	0xbd6e65a9	-0.05820242
200	0x3d3e9d26	0.046536587
201	0x3d81089f	0.063004725
202	0x3c95c66d	0.018283093
203	0x3e0e4713	0.138943
204	0x3d1c4302	0.03814984
205	0x3c80f4ec	0.015741788
206	0xbc68430c	-0.0141761415
207	0xbd55ac23	-0.052166115
208	0xbd0a1ddb	-0.03371988
209	0xbd9e075b	-0.07716247
210	0x3dcc31ad	0.099704124
211	0x3dbb6756	0.09150569
212	0x3dc9b523	0.09849002
213	0x3dec6bd0	0.11544001
214	0xbc462143	-0.012092891
215	0x3d873211	0.06601346
216	0x3c50f7dc	0.012754407
217	0xbc85f9d4	-0.016354479
218	0x3d52264d	0.051306058
219	0x3d081e02	0.033231743
220	0x3da5094a	0.080584124
221	0xbd71e47f	-0.0590558
222	0x3df98e8b	0.12185391
223	0xbd709dd3	-0.058744263
224	0xbd48061a	-0.048833944
225	0x3c73882b	0.014864008
226	0xbd9c8eb2	-0.076444045
227	0x3c878890	0.01654461
228	0x3cc61c18	0.024183318
229	0xbc0b09b0	-0.008486196
230	0x3dc100c9	0.09423978
231	0xbd7f4bc7	-0.062328126
232	0x3d884a9c	0.066548556
233	0xbd6f5043	-0.058426153
234	0xbd5442dd	-0.05182158
235	0x3d9c6067	0.07635575
236	0xbd5e736a	-0.054309286
237	0x3d5aef7e	0.053451054
238	0xbda4a4d2	-0.080392495
239	0x3de93c9c	0.113885134
240	0x3d936d39	0.07198567
241	0xbd985e5b	-0.07439872
242	0xbc0a9e7e	-0.008460639
243	0x3dccaff7	0.099945
244	0x3ba2c9b0	0.0049678907
245	0x3cf3c7b4	0.029758312
246	0xbcb0fe4c	-0.021605633
247	0xba822483	-0.0009929094
248	0xbceda0b1	-0.029007288
249	0xbd8262d8	-0.06366509
250	0x3d28f34e	0.04124766
251	0xbd63d5c7	-0.055623796
252	0x3ddf8684	0.10914329
253	0x3be3272f	0.0069321613
254	0x3c125e58	0.008933626
255	0xbd5cd027	-0.053909447

4.bias f4 [16]
0	0x3da81bc4	0.08208421
1	0x3e303827	0.1720892
2	0x3e76158a	0.24031654
3	0x3e01dbd2	0.12681511
4	0x3da07261	0.07834316
5	0x3e902c4f	0.28158805
6	0x3ed52f0e	0.41637462
7	0x3e659695	0.22420724
8	0x3e1c22dd	0.15247674
9	0x3edeebe3	0.43539342
10	0x3df7ab52	0.12093224
11	0x3def6117	0.1168844
12	0x3dde7198	0.1086151
13	0x3e48e89d	0.19619985
14	0x3e9dd683	0.30827722
15	0x3ed24580	0.4106865
